Q1 practical folder/model_q1.pkl (torch, 319461 bytes, 4 tensors)

W1 f4 [784, 100]
00000000: 833f 24bf 3a76 02c0 a2c7 4a3e e209 debb
00000010: ccb6 25be a360 623e c367 063f 30cb afbf
00000020: 6d5f 4f3d a65f 0e3e 39da e93e e384 193f
00000030: 79cd 6f3e 5873 5c3f fbef 07be a9b5 403f
00000040: 6a21 c63f 2846 e2be 10ed 82bf 5506 4dbf
00000050: 1441 5cbb 3601 303f 7692 96be aad3 8e3f
00000060: fc62 503f c716 89be 9e75 8e3f a47f 88bf
00000070: 8949 023e 3711 a9be 6d18 04bc afa2 893f
00000080: 686c 623f d6aa d13e 010f eb3d 6d23 3ebf
00000090: 986b b0be 1dff 063f 7ab7 ae3f 0925 1d3f
000000a0: 8263 ab3f 7ec6 383d 5b0f 4c3e 56e1 fcbe
000000b0: ce53 f63e 0dbe 353f 1827 11bf a618 b0bc
000000c0: 1233 88bf c97b b1be 3f0a 54bf 51db b1bf
000000d0: fd88 32be aae9 a53f cd93 86bb d097 7d3f
000000e0: dff6 c23c 3cdc b5bd 4571 edbe e273 e8be
000000f0: 47d7 62bf 2efb 09bf 4cee 15bf ba9b 833f
00000100: 411f e2bf 5cb7 23bf e131 8ebf 3ec8 583f
00000110: e7be a13e cdd6 e2bd 2c1b 65bf 9b7c 6f3f
00000120: bdfe 23be 5ae4 51be 3a14 fdbe b65e 49bf
00000130: 94c7 6fbf a0e7 333f d0ea 22be d8d5 203e
00000140: 984d d93e 7c2d 0d3f 5423 5f3f 2b10 f73e
00000150: 4c45 fb3f 45c3 c93e c79f 1440 8b41 51bf
00000160: cd74 c0bc 3894 7cbf 44ed 01bf a8bd abbf
00000170: 578b ff3f 2ffc 3b3f 3cd1 313f c4e7 2a3f
00000180: c4c8 adbf 6202 9f3d c7ef 84bf e230 9e3f
00000190: ed43 ae3f 9013 f43f 1876 c0be 9f4e 19bf
000001a0: 75d8 7ebe 7a3f 42bf 71fd 59bf 31e6 43bf
000001b0: 833e 833e f1be 1cbe 6a96 49bf f24d c5bf
000001c0: 565e 1a3f e3b7 8a3e 328c 9fbf 68ad 9abf
000001d0: 4737 b9bf 25cb c83d 583a dabf 8556 f7bf
000001e0: 15a9 db3e 3f42 0340 3148 f8be f416 8c3e
000001f0: 75c4 0c3f 387d 32bf 5fdd d33d 39e1 4dbf
00000200: ce15 e73e c506 213e ae8d 0fbf 1d08 4cbf
00000210: b8f3 723f ae5d 033f e2cf 8fbf db88 cc3f
00000220: 81a3 27bf ee6e 2dbf ca65 443f e12b 4cbf
00000230: b49f fa3f 9799 ff3f 4b59 033f 2ee9 7e3f
00000240: 892e 05bf 3265 393f 1e93 b5be ccb9 cebf
00000250: 383f fa3e c69c 29bf 1051 bfbf b617 1dbe
00000260: d0c8 cbbf 013c a73f e59e c3bf 5a99 ab3f
00000270: d346 fa3c 0176 1e40 dfdc 913f 45a3 79bf
00000280: 3e40 f9bf db96 9bbf 83b8 a5bf 585b 753f
00000290: fda9 11bf 2276 c1bf 6616 2e3f 4328 973d
000002a0: 4f93 4e3f 812f ef3d c57a cc3e 41e3 85be
000002b0: f4e5 81bf 1c8f 9fbd 97c4 c0bf 00f8 60bf
000002c0: 7222 be3e 423c ebbf 41fa abbf fee4 393f
000002d0: 4301 fcbe 79e6 f43f e9be b1be 8138 3e3f
000002e0: 0e47 52bf 6c6a ae3f 6fcc 2c3f 9e63 b23f
000002f0: 741c f03e 4319 453f 0e6d 1cbd c5e9 18bf
00000300: 40bb b73f 87ad 53bf 67b1 18bf 8876 1ac0
00000310: edfe c7bb 3cbf 6abf 97ff cf3d 76fa 193f
00000320: 70e7 fdbf a3a1 89bf 2c40 f9bf 6060 ddbe
00000330: 4d01 0040 9330 9cbf dd34 e23e 5efc a43e
00000340: 9a16 903f e33b 123f 6e6d 17bf 3e9a 923e
00000350: a3d3 643f 5fb2 553f a630 e03e b426 15bd
00000360: 57c9 f2be 997f 74bd df28 68bd 2f44 6cbf
00000370: 66c6 343f 0d0a 593f e66e a13f 312b 9f3f
00000380: ad50 ad3e 5394 9fbf fe11 c4bf 0b45 0e40
00000390: cad0 a2bf 9457 293d ab53 bb3f 007c 8c3e
000003a0: 90c8 d5be 91e0 ca3f 55ee aebf 60db 973c
000003b0: e019 1b3f f84b a33f f919 bfbe d0d6 e93e
000003c0: 704a d13f 336f e73d b540 463f bd41 44bf
000003d0: 24c6 03c0 d2cb 61bd 6f03 ca3f d66c 2abf
000003e0: c5d1 7ebe 2453 08bd ab36 e3bd 4a7e 8dbd
000003f0: 4815 ad3f eea6 233f 6042 5fbf 0477 da3f
-0.6415941 -2.038466 0.19802716 -0.0067760805 -0.16183013 0.22107176 0.5250208 -1.3733883
0.050628114 0.13903674 0.45674303 0.59968394 0.23418225 0.861135 -0.13275139 0.7527719
1.5478947 -0.4419415 -1.0228596 -0.80087787 -0.0033608126 0.6875185 -0.29408616 1.1158345
0.8140104 -0.2677519 1.1129644 -1.0663953 0.12723364 -0.33020946 -0.008062464 1.0752772
0.88446665 0.4095065 0.11477471 -0.74272805 -0.34457088 0.5273302 1.3649743 0.61384636
1.3389742 0.045111172 0.19927733 -0.49390668 0.48110813 0.7099312 -0.5670028 -0.021496128
-1.0640585 -0.34664753 -0.82828134 -1.3895055 -0.1743507 1.2961934 -0.0041069747 0.9905977
0.023799358 -0.08879897 -0.4637548 -0.45400912 -0.8860974 -0.53898895 -0.5856674 1.0281899
-1.7665788 -0.6395166 -1.1108972 0.84680545 0.3159096 -0.11076126 -0.89494586 0.9354951
-0.16015144 -0.20497265 -0.49429494 -0.7866014 -0.9366391 0.70275307 -0.15909886 0.15706575
0.42442012 0.5514753 0.8716328 0.48254523 1.9630523 0.3940679 2.322252 -0.81740636
-0.023493195 -0.98663664 -0.50752664 -1.3417253 1.9964398 0.73431677 0.6945989 0.66759896
-1.3576894 0.07764126 -1.0385674 1.2358668 1.3614479 1.906847 -0.37590098 -0.5988559
-0.2488726 -0.7587811 -0.85152346 -0.7652312 0.2563363 -0.15307213 -0.7874514 -1.5414412
0.60300195 0.2709342 -1.2464659 -1.2084169 -1.4469994 0.09804372 -1.7049055 -1.9323279
0.42902437 2.0509183 -0.48492578 0.27361262 0.5498727 -0.6972232 0.103449576 -0.8042179
0.45133823 0.15725239 -0.5607556 -0.7969988 0.94903135 0.5131482 -1.1235316 1.5979265
-0.6548386 -0.6774739 0.7671782 -0.79754454 1.9579988 1.9968747 0.51308125 0.99574554
-0.5202413 0.72420037 -0.35463804 -1.6150451 0.48876357 -0.6625484 -1.4946613 -0.15341076
-1.5920658 1.3065187 -1.5282866 1.3406174 0.03055135 2.4759524 1.139553 -0.97514755
-1.947273 -1.2155412 -1.2946934 0.95842505 -0.56900007 -1.5114176 0.6800293 0.07380726
0.80693525 0.116789825 0.39937416 -0.26149943 -1.0148301 -0.07790968 -1.5059994 -0.8787842
0.37135655 -1.8377764 -1.3435746 0.7261504 -0.49219713 1.9132835 -0.34715965 0.7430497
-0.8213967 1.3626227 0.6749944 1.3936651 0.46896708 0.7699167 -0.03818994 -0.59731704
1.4354019 -0.82686657 -0.59645694 -2.4134846 -0.0061033876 -0.9169805 0.10156172 0.601478
-1.9836254 -1.0752453 -1.9472709 -0.4323759 2.0000794 -1.2202324 0.44180956 0.3222379
1.1256897 0.5712263 -0.5915135 0.28633302 0.8938543 0.834753 0.43787116 -0.036413863
-0.47419235 -0.059692 -0.056679603 -0.9229154 0.7061523 0.8478096 1.2611969 1.2435056
0.33850613 -1.246714 -1.5317991 2.222964 -1.2719967 0.041343287 1.4634908 0.27438354
-0.4175458 1.5849782 -1.3666483 0.018537223 0.6058636 1.2757559 -0.37324503 0.456717
1.6350842 0.113005064 0.77442485 -0.7666281 -2.0589685 -0.05512602 1.5782298 -0.6657232
-0.24884708 -0.033282414 -0.110944115 -0.06908853 1.352212 0.6392659 -0.87210655 1.7067571

W2 f4 [100, 10]
00000000: 46a2 833f f50e 92bf 61b7 bc3f c640 d2bd
00000010: 02c1 ccbf fc5e 86bd f351 a3bf cc6f 0fbe
00000020: b32b 463f 78d3 c13d 788b c6be 470d 353f
00000030: ecd5 cebe 296e 0bbf baf6 2dc0 b3de 0bbf
00000040: 743d 25c0 6dbf 283f 253c 2e3e d6c2 09bf
00000050: 6ac2 193f 2275 4ebf 2747 88bf 9e0a 50bd
00000060: ae03 a73e c2c4 023f 9913 0440 d626 9bbf
00000070: 9ae4 b03f 2b3b 063f 509f df3f ec44 b73d
00000080: 0df6 823e f0d7 babf fad1 a9bc 342a 2dbf
00000090: 2d8c 8a3f 89d8 003f d1a8 31bf ad70 0cbe
000000a0: 0fdf a33e c51a a9be f482 67be 86c7 533f
000000b0: f443 0e3f 0216 093f 6c73 e5be 90a7 093f
000000c0: 3eae 453f 027f 5a3f f296 aa3e d5df 76bf
000000d0: f346 bfbe 3f63 35be ee41 8e3f 161b 563e
000000e0: cee4 0a3e 1bc6 4fbf 3786 dcbe 68aa d73d
000000f0: a1dd 5b3f 790f 07bf bcfc ae3f 96b8 f93e
00000100: cdb4 3cbf 54ed c03c 97cc 8a3e a9f4 9bbf
00000110: 3d7b b1be 7fd9 0cbf d61c 713d f8cf f2bc
00000120: 7edb 7bbf c354 503f 5129 f73e 6001 a8bf
00000130: 779b 903f 330b 0cc0 bf7c 7bbe 1650 0f3f
00000140: 0709 0cbd decc a43f b1dd 07bf fdd2 07bf
00000150: 62b8 7dbf 4cc9 6340 dc83 5f3e 5135 51bf
00000160: 8032 97bf 9e2c 2dbf 11a1 a2bf 06c2 71be
00000170: 889f c73e 40e2 c3bf c0b1 d13d 9bc0 85bf
00000180: fa1d 1dbe a814 46bf 2e86 693e 67ad 4ebe
00000190: ef0f 383f 1c37 89bd 9115 29bf 5286 c9be
000001a0: e160 4fbf 41e1 07bf 8925 40be 56d4 a73f
000001b0: 4eae a1bf 25bc d6bf 90b8 d13e b050 2fbf
000001c0: 345c 053f 548f 3fbf 1ff7 803f 9c8d 2bbf
000001d0: 4fd7 823f 1547 153f 0ec7 a2be 68ac ae3f
000001e0: 992f 323e 3b12 963f b1d4 27be 5f53 a83c
000001f0: d431 58bf 3ed0 1c3f e04c 2540 97ae afbe
00000200: 2ca8 5d3e 688b afbf b443 01bf 4eb3 b6bf
00000210: 979c d23f f915 603f 7612 0240 cc9a bfbf
00000220: b503 3ebe a5ff a2bc 93f2 ba3e 2a50 403f
00000230: c0a7 133e 33bb 78bf ad19 8dbe e8e4 22bf
00000240: e0e0 0bbf e7e1 82be 9df0 a93e 469c b23c
00000250: 3ddf 2dbf 8d88 62bf 7328 433f a710 2fbe
00000260: be78 94bd e9fa 273e 6fa7 963f 8709 a33f
00000270: 4b78 84bf fd14 cb3f 5663 a83e d05e 813f
00000280: 9ad4 83bc 81f3 ecbe 61a4 903f 1c4f 5e3f
00000290: a067 433e 51e2 d03e 730a 46bf f00d 8e3d
000002a0: 56a9 1e3f eaaf c13e 23e9 57bf 5131 e9be
000002b0: ecbc a1bf f79d e33e dde8 653f a425 873f
000002c0: ca4b e13f d4c4 9abe 22ef a03f f74f cd3e
000002d0: 1427 c4be 0788 463f f6eb ea3f 4bfd a93f
000002e0: 73e1 17bf b2ea c5be 37ac a23f 762e 1abf
000002f0: 6e4a 013f 09d5 c1bf 32f6 173f 2a8e 21be
00000300: b12c 1fc0 a667 19bf f6d2 153f 79b5 2bbe
00000310: 5149 cc3f 3f9b 95bf 0d81 a8be 7592 4c3f
00000320: e459 86bf 0ea0 cfbf 97c2 a1be cae9 86bf
00000330: dead c73f 732c a9be bedf cbbe e53d 1dbf
00000340: e2eb 41bf d9b9 3cbf 38e8 88bd ab43 98be
00000350: ebf8 173d 21af b5bf 6a56 88bf 6b5e 5e3e
00000360: d859 b8be a489 a3bf c679 b1be 88e1 d83e
00000370: d6f0 a5bc 3fce 2fbf 3e00 a53e bebc b83c
00000380: d0da a53e 07da 553e 3f11 01bf 4390 713f
00000390: 3999 3cbf bb43 ebbf 5da9 e9be 53f0 693f
000003a0: ee53 473f 4c7a 803e 37d2 163f 4d18 8d3f
000003b0: 6e3c 333f d352 6dbf df8f 57bf 5a64 40bf
000003c0: 85fc 123f 361b 133f a7c1 8a3f 364b 1b3f
000003d0: f297 69bf 0761 3fbe e3ca 8abf 90ad b93d
000003e0: 9de0 de3d 265e 63be 48a5 17bd 6d9b 9b3e
000003f0: cb63 a0be c5d7 b3bd 7de6 a23e 7045 8c3f
1.0283897 -1.1410815 1.4743463 -0.10266261 -1.5996401 -0.065610856 -1.2759384 -0.14007491
0.7741043 0.094641626 -0.3877828 0.70723385 -0.40397584 -0.54464966 -2.718184 -0.5463669
-2.5818758 0.6591709 0.17015131 -0.5381292 0.6006228 -0.8064748 -1.0646714 -0.050791375
0.32619995 0.5108148 2.0636961 -1.2121227 1.3819764 0.52434033 1.7470493 0.08948693
0.25578347 -1.4597149 -0.020730007 -0.6764252 1.0824028 0.50330406 -0.6939822 -0.13714857
0.32006118 -0.33028236 -0.22608548 0.82726324 0.5557244 0.53549206 -0.44814622 0.53771305
0.77219 0.8535005 0.33318287 -0.9643529 -0.37358817 -0.1771364 1.111387 0.2090877
0.13563845 -0.8116166 -0.43071148 0.10530549 0.85885054 -0.52757984 1.3670878 0.4877364
-0.7371338 0.023550667 0.27109215 -1.2184039 -0.34664336 -0.5501937 0.05886539 -0.029640183
-0.98381793 0.81379336 0.4827371 -1.312542 1.1297444 -2.1881835 -0.24559306 0.55981576
-0.034188297 1.287502 -0.5307265 -0.5305632 -0.9910947 3.5591612 0.21827644 -0.8172198
-1.1812286 -0.67646205 -1.2705404 -0.2360917 0.389889 -1.5303421 0.10238981 -1.0449404
-0.15343466 -0.7737527 0.22805092 -0.20183335 0.7189931 -0.066999644 -0.6604853 -0.3936029
-0.810072 -0.53078085 -0.18764319 1.3111675 -1.2631319 -1.6776167 0.40961123 -0.68482494
0.52093816 -0.74828076 1.0075415 -0.67012954 1.0221957 0.5831159 -0.31792492 1.3646364
0.1740097 1.1724313 -0.16389729 0.020547567 -0.8445103 0.6125525 2.582817 -0.3431289
0.21646184 -1.3714418 -0.5049393 -1.427347 1.6454037 0.8753353 2.0323768 -1.4969115
-0.18556102 -0.019897291 0.36513194 0.7512232 0.1441946 -0.97160643 -0.27558652 -0.63630533
-0.54640007 -0.25562975 0.33191386 0.021803033 -0.6791876 -0.8848961 0.76233596 -0.17096196
-0.07249592 0.16404308 1.1769847 1.2737283 -1.034921 1.586578 0.32888287 1.010706
-0.016092587 -0.4627953 1.1300164 0.8683946 0.19082499 0.40797666 -0.77359694 0.06936252
0.61977136 0.37829524 -0.84340113 -0.45545438 -1.2635779 0.44456455 0.89808446 1.0558362
1.7601254 -0.30228293 1.2572978 0.4010007 -0.38311064 0.7755131 1.835326 1.3280424
-0.59328383 -0.3865562 1.2708806 -0.60227144 0.50504196 -1.5143138 0.5936004 -0.15776888
-2.4871027 -0.5992378 0.58525026 -0.16768445 1.5959874 -1.1688002 -0.32910958 0.79910976
-1.0496182 -1.622072 -0.31593773 -1.0540097 1.5599935 -0.33041725 -0.3981914 -0.6142257
-0.75750554 -0.7372108 -0.06684917 -0.29739127 0.03710262 -1.419407 -1.0651371 0.21715705
-0.36006045 -1.277638 -0.34663218 0.42359567 -0.020256441 -0.6867408 0.32226747 0.022550937
0.32393503 0.20883952 -0.5041694 0.9436075 -0.736713 -1.8380045 -0.45637026 0.9138233
0.7786244 0.25093305 0.5891451 1.1023041 0.70014083 -0.92704505 -0.84203905 -0.75153124
0.57416564 0.57463396 1.0840348 0.6066164 -0.91247475 -0.18689357 -1.0843166 0.090663075
0.10882685 -0.22203884 -0.03702286 0.30392018 -0.31326136 -0.08781389 0.31816474 1.0958691

b1 f4 [100]
00000000: 312e d1be c0b1 67be 5240 44bf 4ac0 423d
00000010: 0c36 97be e4b6 8a3e 4cb5 64bd 9fd5 18bc
00000020: a9a6 bcbe 4ea6 8abe 9680 203e 2a4a b7be
00000030: 3d96 7439 dfaf 84be a333 183e dba7 923e
00000040: e9ca c63d c2da ce3e 6dfe aabe 10aa 1a3f
00000050: 1e67 07bf 0a1a 123e 52e8 52be ea4c 8cbd
00000060: 00b0 9abe 9799 2a3d ecaa fb3d 9d89 ce3e
00000070: 7aaa 4c3e e256 81be 2ac8 0ebd b3d9 e1bd
00000080: 0ae7 1b3e 7122 9ebe 52a9 4b3d 3089 493e
00000090: 5b12 e7bd 3da4 f5bd d6ed 983d 88dc f8bd
000000a0: 2206 98bc 54d1 9ebe ec9a 1c3b eae4 a33d
000000b0: 467c 43be 20f6 18be 72d1 7a3d 4182 003f
000000c0: 8f2e 223e 16a4 87bd f968 c5be f0ef 993d
000000d0: e7b2 ccbd cd82 7c3c 8323 3f3e 0861 3abe
000000e0: 8b6b 0e3e 8318 743e db57 0e3c 3568 94be
000000f0: cb58 633e 57cf e43d 9055 1b3e 859c 7cbe
00000100: 7bf9 febe 1590 b43e 9422 383d d247 96be
00000110: b944 d5bd 19ca 5d3e e141 d53e 467d b73d
00000120: 7887 153a cb27 163f a7ed 41be 310b 3d3e
00000130: 3b90 c4be bafd f5bd c4de 64bc 5b76 15be
00000140: b72a 29bd 0bcd a53d 160e 333e 7055 113e
00000150: 9402 873e f72d c63d d2e9 a1be 35c8 833e
00000160: 8a86 b93e af7e c9bd eed0 2f3e 2e38 413d
00000170: a2b9 bfbd 639f 4f3e 0f34 103e 05ea f7bd
00000180: 79ec 79be 8ae9 eb3d 23a8 15be 7cbe c53d
-0.40855554 -0.226264 -0.76660645 0.047546662 -0.29533422 0.2709266 -0.05583696 -0.009328275
-0.36845902 -0.27080005 0.15674052 -0.3579877 0.00023325621 -0.2591543 0.14863448 0.2864369
0.09706671 0.40401274 -0.33397236 0.60415745 -0.5289172 0.14267746 -0.20596436 -0.06850608
-0.30212402 0.04165038 0.1228846 0.40339366 0.19986907 -0.252616 -0.03485886 -0.11027851
0.15224853 -0.30885652 0.049722023 0.19681239 -0.11282798 -0.119942166 0.074672386 -0.12151438
-0.018557612 -0.3101908 0.0023896052 0.08002646 -0.19090375 -0.14937639 0.0612349 0.5019875
0.15838073 -0.06623094 -0.3855665 0.075164676 -0.099950604 0.015412045 0.1866589 -0.18201077
0.13908212 0.23837475 0.008687939 -0.28985754 0.2220184 0.111723594 0.15169358 -0.24669082
-0.49799713 0.35266176 0.04495485 -0.2935167 -0.104134984 0.21659125 0.41651824 0.08959441
0.00057040853 0.5865447 -0.18938313 0.184613 -0.3839129 -0.12011285 -0.013969127 -0.1459593
-0.0413005 0.080957495 0.17485842 0.14192748 0.26369154 0.09676736 -0.31623703 0.25738683
0.36235458 -0.09838616 0.17169544 0.047172718 -0.093615785 0.20275645 0.14082359 -0.121051826
-0.24406613 0.115191534 -0.1461492 0.09655473

b2 f4 [10]
00000000: 49de a6bd 2298 933d f1c3 28be 01f4 ad3d
00000010: bb88 2cbe 2a13 a33e 4acd db3d 2c4b 803e
00000020: 2f28 c4be 3177 11bd
-0.08147866 0.072067514 -0.16480996 0.08493806 -0.16849034 0.3185056 0.10732515 0.25057352
-0.38311908 -0.03551406
