Q2 practical folder/model_q2.pkl (torch, 319461 bytes, 4 tensors)

W1 f4 [784, 100]
-1.3228658 0.9996907 -1.8716115 -0.26855803 -0.8112225 -0.3613007 -0.5160325 -0.323553
0.84908545 -0.33951154 -1.7002923 -0.779285 -0.19716714 2.5896082 0.1912042 1.407139
0.701729 -0.22582507 -0.24015646 1.5132211 -0.5567128 -0.76408863 -2.230099 2.38971
-0.539436 0.038865406 -1.4333926 -0.8844106 -0.5643246 0.12456912 -0.79587626 0.829907
-0.30115122 0.8404192 -0.11201707 0.54973644 -1.5578756 -1.5249845 0.023705887 -0.8435217
1.2852107 -0.96596104 -0.17951223 1.3111446 1.4241875 0.8032368 1.8947451 0.19171008
1.3619893 0.9332664 -1.7088064 -0.8318925 -0.6913459 -1.5362056 0.7511842 -1.0697546
-1.7377448 -0.42180708 -0.10894697 0.6440017 -0.16265516 -2.0347207 -0.68174046 1.5735587
0.7809095 -2.1136773 -0.3624099 -0.06960024 -1.4968232 -1.995427 0.16735324 0.06645434
-0.98624736 -0.42857406 -1.30488 1.7157406 1.4125633 -0.22751388 0.25769392 1.736205
-0.3211242 -1.085512 0.4112663 0.58880043 0.06981606 0.21841754 0.9148552 -0.7300656
0.81226486 -0.4636849 0.8924155 1.0505121 -0.91528076 0.12086196 0.025849653 -0.86038625
0.7349068 0.8593777 0.33092433 -0.52808774 1.921643 -0.78762937 -0.27900112 0.020445667
0.39443946 1.233107 0.13532698 1.389469 -1.1119064 -0.14996338 -1.5569417 0.023417931
-1.5563419 0.07323269 -0.34908196 0.48684278 0.0037559269 -0.15796861 -0.20862949 1.4315913
-1.0081875 -1.1539454 0.111217424 0.2864313 1.499999 -1.1156918 -2.1207745 1.3596936
0.03828079 -0.28323144 -1.1642361 -1.3252294 -0.67468977 0.28579885 -0.35354057 0.90976584
-1.0071034 0.00828798 1.0357374 -0.08931069 0.10911892 -0.0024537228 0.108994655 -0.92724276
0.6259852 0.46618408 -0.54428554 1.1453379 -0.33279833 0.49585563 3.1285906 -1.769462
0.42611057 -0.28259268 0.5651359 1.8551939 0.534082 -0.08811614 0.7812111 -0.0068859938
0.13002023 0.066918105 0.33863154 -1.9701769 -1.1697484 -0.15670188 0.78938746 0.72410595
-0.73109907 -0.49838546 -0.085412666 -0.9388959 -1.810331 0.23960553 -0.6126266 0.6731902
0.4556728 0.9804783 0.38315332 -0.6290317 0.11182669 -1.117459 -0.06081667 -0.6699063
-0.79018724 0.6904571 -0.9538904 -0.6357386 1.8096541 1.0814615 -1.2074144 0.15291956
0.20167391 1.875552 -0.40285882 -0.34089875 -0.12360586 -0.5445211 -0.8474479 0.13245694
-0.15021372 -0.102126814 -0.61876816 0.87677705 0.16338848 -0.27721015 1.1948315 0.76767045
0.04352566 2.2834706 -0.28367177 0.24676014 1.3048542 -0.9292197 -0.10720209 0.31933632
-0.56344193 -0.6168207 0.22012796 -0.6265733 -0.75232404 -2.4166708 0.13213496 0.436594
1.1208054 -0.65217954 -0.43331653 1.1858299 -0.7615428 -0.12930678 0.5441877 0.70419604
0.041358206 0.50333387 -1.1914786 -0.8548999 -0.8655905 0.6010596 0.9454898 -0.8989717
-0.023961218 -0.93694746 0.26130387 -1.9358922 -0.7728453 -0.35767415 0.41493174 -0.123912506
-0.93428534 1.038778 0.9648314 1.0422257 -0.20814104 -1.3747101 1.7590983 0.55785143
00000000: ab53 a9bf bbeb 7f3f f790 efbf 7080 89be
00000010: 47ac 4fbf 68fc b8be b51a 04bf bda8 a5be
00000020: aa5d 593f 75d4 adbe 2ea3 d9bf 397f 47bf
00000030: 2fe6 49be 24bc 2540 09cb 433e 211d b43f
00000040: 83a4 333f b03e 67be 93eb 75be 3bb1 c13f
00000050: bb84 0ebf 509b 43bf f1b9 0ec0 02f1 1840
00000060: 7a18 0abf 5531 1f3d 6979 b7bf bc68 62bf
00000070: 9477 10bf 181e ff3d 8cbe 4bbf c974 543f
00000080: 7e30 9abe b625 573f 3569 e5bd 87bb 0c3f
00000090: 7868 c7bf b132 c3bf d932 c23c 0af1 57bf
000000a0: c981 a43f 3949 77bf 0ed2 37be 96d3 a73f
000000b0: c74b b63f eda0 4d3f 0287 f23f a64f 443e
000000c0: aa55 ae3f 8cea 6e3f 2bba dabf e8f6 54bf
000000d0: 0bfc 30bf 63a2 c4bf 9c4d 403f b8ed 88bf
000000e0: 6c6e debf 19f7 d7be 971f dfbd 4cdd 243f
000000f0: 138f 26be dd38 02c0 8b86 2ebf 5f6a c93f
00000100: afe9 473f 7d46 07c0 ca8d b9be 928a 8ebd
00000110: e797 bfbf 276a ffbf a65e 2b3e 3719 883d
00000120: b57a 7cbf 0f6e dbbe 4f06 a7bf 639d db3f
00000130: e0ce b43f 66f9 68be 75f0 833e f73b de3f
00000140: 646a a4be 0ff2 8abf 7f91 d23e a0bb 163f
00000150: b9fb 8e3d d9a8 5f3e f333 6a3f 94e5 3abf
00000160: 97f0 4f3f 1b68 edbe 5875 643f 2e77 863f
00000170: d74f 6abf 7a86 f73d a7c2 d33c 4642 5cbf
00000180: da22 3c3f 2d00 5c3f ea6e a93e c230 07bf
00000190: 66f8 f53f 14a2 49bf 3cd9 8ebe ac7d a73c
000001a0: f8f3 c93e 73d6 9d3f 2893 0a3e 1fda b13f
000001b0: f352 8ebf 0090 19be de49 c7bf f6d6 bf3c
000001c0: 3636 c7bf 05fb 953d dfba b2be 7543 f93e
000001d0: ff25 763b 86c2 21be f8a2 55be 623e b73f
000001e0: 4a0c 81bf 7cb4 93bf f6c5 e33d 20a7 923e
000001f0: f8ff bf3f fdce 8ebf c5ba 07c0 710a ae3f
00000200: 51cc 1c3d b603 91be b005 95bf 1ea1 a9bf
00000210: 78b8 2cbf 3a54 923e 4503 b5be 6ae6 683f
00000220: c4e8 80bf 4fca 073c 0b93 843f 86e8 b6bd
00000230: be79 df3d a3ce 20bb 9738 df3d c85f 6dbf
00000240: 9140 203f aeaf ee3e 4c56 0bbf 6f9a 923f
00000250: 8b64 aabe cae0 fd3e d43a 4840 bb7d e2bf
00000260: 2a2b da3e fdaf 90be bfac 103f fe76 ed3f
00000270: 99b9 083f 3c76 b4bd 73fd 473f e7a3 e1bb
00000280: 0624 053e 5c0c 893d 1d61 ad3e c22e fcbf
00000290: 51ba 95bf 7576 20be 4c15 4a3f 025f 393f
000002a0: 4f29 3bbf 612c ffbe d6ec aebd 7b5b 70bf
000002b0: edb8 e7bf 275b 753e 19d5 1cbf 3156 2c3f
000002c0: f24d e93e a000 7b3f ac2c c43e 3908 21bf
000002d0: 6405 e53d e608 8fbf e71a 79bd fb7e 2bbf
000002e0: b649 4abf ccc1 303f 2932 74bf c4bf 22bf
000002f0: bfa2 e73f 556d 8a3f 8e8c 9abf f296 1c3e
00000300: 9b83 4e3e 1712 f03f 8343 cebe 488a aebe
00000310: 1225 fdbd bc65 0bbf 58f2 58bf cba2 073e
00000320: a0d1 19be dd27 d1bd 9767 1ebf 7674 603f
00000330: 4f4f 273e 7dee 8dbe 3df0 983f 0d86 443f
00000340: f647 323d 6224 1240 6d3d 91be b1ae 7c3e
00000350: 7605 a73f 58e1 6dbf c58c dbbd 0d80 a33e
00000360: bb3d 10bf f6e7 1dbf 3969 613e 1c67 20bf
00000370: 4f98 40bf bcaa 1ac0 634e 073e 4089 df3e
00000380: 8d76 8f3f 3df5 26bf aadb ddbe 46c9 973f
00000390: 78f4 42bf ff68 04be e34f 0b3f 3146 343f
000003a0: 3967 293d 7dda 003f 5f82 98bf b8da 5abf
000003b0: 5797 5dbf 0bdf 193f 9f0b 723f 0223 66bf
000003c0: 514a c4bc cadb 6fbf 9fc9 853e 51cb f7bf
000003d0: 31d9 45bf 1121 b7be ef71 d43e d7c5 fdbd
000003e0: 532d 6fbf adf6 843f 31ff 763f a767 853f
000003f0: ed22 55be 80f6 afbf 222a e13f 5acf 0e3f

W2 f4 [100, 10]
0.44245064 -0.15945593 -1.6178309 -0.34536007 -0.14766093 -0.6167847 1.2819346 0.6651447
1.125686 -0.11530688 -0.75929534 -0.13500607 -0.09754044 1.8368514 -0.63877565 0.102850705
0.92072487 0.5873269 1.0898055 0.384491 -0.8493314 1.6588949 0.3456864 0.054878972
-0.9237253 -1.2643064 0.9379934 0.18598771 -0.5186133 0.7989427 0.46997932 -0.79672223
0.20137435 -0.3483996 0.19751576 -0.058961663 1.2490528 -0.08169981 -1.9614964 0.66757834
1.4065281 0.049954936 -0.37887505 0.9562566 -2.614267 -0.08953332 1.0080254 -1.0519277
0.4422075 3.0215125 -0.825027 -0.42461318 0.09359718 -0.6060546 -0.6442412 -1.296847
0.5391958 -0.5445879 1.588686 1.7030925 -1.2458758 0.19537458 0.68177754 -0.8395058
0.084849715 -1.0681626 -0.5437191 -1.3094851 0.7061127 0.61094624 0.9088055 0.4873511
-0.050125387 -0.35553238 -0.50046927 -0.047187865 -0.9319162 -1.1909937 1.4325494 0.62249947
0.77827805 -0.18847086 -0.14100046 -0.87029535 0.367298 1.0461318 -0.117793754 -0.5309636
-0.90228456 -0.59998935 0.379667 1.1980842 -0.060935326 -2.7219975 1.0719185 -1.2899181
-0.56599134 0.9926403 -0.09981773 0.70498747 1.1938776 0.29646552 -1.1917948 0.083611704
0.8785699 -1.6794084 -0.1968885 -0.040918518 0.21113496 -0.29781678 0.09065263 0.21822219
0.6649757 0.9880411 0.6157621 -2.0621128 1.3329539 -1.3040475 -0.129483 0.52844185
0.44116706 2.0388012 -1.6322696 -1.7160251 1.9373473 -1.028604 1.5417948 -0.13651402
-1.1115047 0.47912553 0.69619083 1.0403707 -1.8272834 0.3647966 -1.0329742 -1.3083603
-0.91026884 -0.02930291 -1.0168332 0.67726153 -0.2429997 -0.5688638 -0.7073958 -1.2860948
-1.1548791 -2.2057474 0.47254205 1.2261639 -0.72462976 0.124460265 1.3656082 0.5139291
0.60520726 1.3209357 -0.5079469 -0.46439543 -0.35202134 0.37832865 -0.31928432 0.2720488
0.6999283 1.5550631 -1.0575786 0.12082096 0.88846135 0.50460654 -0.18857902 -0.010149561
1.0661964 0.17097881 0.88510954 0.71450925 0.72120225 -1.0000787 0.22640462 -0.5216554
-0.003031448 0.006656538 0.24095413 -0.19325648 -1.4252617 0.9561896 0.068194285 -1.0101655
1.3394887 1.1496059 -0.24671297 0.9181076 1.984128 0.42386854 0.58891654 -0.74994344
1.1575805 1.872078 1.5408243 0.07047868 0.7152263 -0.12668835 0.2564674 1.1222317
0.13832109 0.44052258 -1.965665 -1.5324754 0.4989587 -2.2386081 0.40793532 -1.1175157
-1.7412318 -1.1553137 0.99781364 1.98181 0.29790074 -0.82498467 1.6921059 2.2429614
0.027007045 -0.73027414 1.0234442 -0.0029350552 0.75621426 -0.35251305 0.22354908 1.3244809
0.9182228 -1.3488941 -0.42847884 -1.5777245 0.6698858 0.5577317 -1.1452004 -0.47847348
-0.52469605 0.015607098 -1.256994 -1.0671672 0.879717 -1.5993271 -0.9545947 -1.0196111
-0.09516293 -1.2164716 1.1303438 -0.09925544 1.0588787 -0.7351243 -0.69998586 -0.059827074
0.05997782 0.46986672 0.0467664 -0.40193012 -0.84326595 1.2275493 -0.5190563 0.42984125
00000000: e488 e23e 6a48 23be 1515 cfbf 09d3 b0be
00000010: 6d34 17be 9ae5 1dbf 6f16 a43f ec46 2a3f
00000020: 7b16 903f 0326 ecbd 2e61 42bf 083f 0abe
00000030: 48c3 c7bd f21d eb3f cd86 23bf 64a3 d23d
00000040: a0b4 6b3f 0e5b 163f bf7e 8b3f 01dc c43e
00000050: c86d 59bf ab56 d43f cffd b03e c6c8 603d
00000060: 4379 6cbf cbd4 a1bf 5620 703f 9073 3e3e
00000070: d7c3 04bf 8287 4c3f 21a1 f03e fdf5 4bbf
00000080: 1435 4e3e 6f61 b2be 9241 4a3e c981 71bd
00000090: f6e0 9f3f 3b52 a7bd 5012 fbbf 6ae6 2a3f
000000a0: 1d09 b43f 8c9d 4c3d e9fb c1be 3ccd 743f
000000b0: 2750 27c0 3f5d b7bd fa06 813f 91a5 86bf
000000c0: 0569 e23e 7660 4140 f834 53bf e666 d9be
000000d0: e1af bf3d 6526 1bbf feec 24bf 15ff a5bf
000000e0: bc08 0a3f 1d6a 0bbf 105a cb3f effe d93f
000000f0: dc78 9fbf 4610 483e f988 2e3f dae9 56bf
00000100: b0c5 ad3d 8db9 88bf 2d31 0bbf 359d a7bf
00000110: cdc3 343f f966 1c3f 7aa7 683f 1586 f93e
00000120: 4750 4dbd 5708 b6be c11e 00bf 1048 41bd
00000130: 0f92 6ebf 7b72 98bf c75d b73f 205c 1f3f
00000140: 3b3d 473f 81fe 40be 6d62 10be adcb 5ebf
00000150: 7c0e bc3e a6e7 853f da3d f1bd 3bed 07bf
00000160: 1ffc 66bf e798 19bf b763 c23e d35a 993f
00000170: 5297 79bd 3535 2ec0 a034 893f 091c a5bf
00000180: cfe4 10bf ad1d 7e3f 3d6d ccbd 0f7a 343f
00000190: fbd0 983f 54ca 973e bb8c 98bf 9d3c ab3d
000001a0: f5e9 603f dbf6 d6bf 249d 49be 2d9a 27bd
000001b0: c333 583e 717b 98be 16a8 b93d a375 5f3e
000001c0: d93b 2a3f 43f0 7c3f 96a2 1d3f a8f9 03c0
000001d0: 3c9e aa3f 07eb a6bf 3197 04be f747 073f
000001e0: a6e0 e13e b87b 0240 36ee d0bf b6a6 dbbf
000001f0: fffa f73f 4ca9 83bf 8859 c53f 55ca 0bbe
00000200: c945 8ebf f14f f53e 9039 323f de2a 853f
00000210: 6ce4 e9bf 9fc6 ba3e 8038 84bf 5a78 a7bf
00000220: 6107 69bf a80c f0bc 9727 82bf 0361 2d3f
00000230: ead4 78be 0fa1 11bf e417 35bf c19e a4bf
00000240: 14d3 93bf f72a 0dc0 08f1 f13e f0f2 9c3f
00000250: 5681 39bf 06e5 fe3d 40cc ae3f dc90 033f
00000260: ddee 1a3f 6c14 a93f cf08 02bf 3dc5 edbe
00000270: 243c b4be 4bb4 c13e 3c79 a3be fb49 8b3e
00000280: 802e 333f 4f0c c73f bc5e 87bf fb70 f73d
00000290: 3472 633f e52d 013f dc1a 41be 584a 26bc
000002a0: 2079 883f 1215 2f3e 8a96 623f 14ea 363f
000002b0: b6a0 383f 9402 80bf 9dd6 673e 358b 05bf
000002c0: 42ab 46bb 171f da3b aebc 763e 07e5 45be
000002d0: fa6e b6bf d7c8 743f 72a9 8b3d 1a4d 81bf
000002e0: 5e74 ab3f 4926 933f 53a2 7cbe 1a09 6b3f
000002f0: e8f7 fd3f 4c05 d93e 3cc3 163f 4bfc 3fbf
00000300: 992b 943f 40a0 ef3f bb39 c53f 2057 903d
00000310: 1219 373f 97ba 01be b24f 833e 4aa5 8f3f
00000320: 0ba4 0d3e 2d8c e13e e99a fbbf 2728 c4bf
00000330: 8477 ff3e 5b45 0fc0 e6dc d03e c10a 8fbf
00000340: afe0 debf 52e1 93bf b770 7f3f f3ab fd3f
00000350: 7286 983e 3232 53bf ed96 d83f ae8c 0f40
00000360: e13d dd3c 3ff3 3abf 3800 833f 0e5a 40bb
00000370: 4297 413f 977c b4be 0dea 643e 9788 a93f
00000380: a610 6b3f 90a8 acbf 9461 dbbe e0f2 c9bf
00000390: a37d 2b3f 81c7 0e3f ed95 92bf 7afa f4be
000003a0: 7b52 06bf eab4 7f3c 2ee5 a0bf ef98 88bf
000003b0: 2235 613f c0b6 ccbf 5160 74bf 9e82 82bf
000003c0: c8e4 c2bd 57b5 9bbf 1baf 903f 7046 cbbd
000003d0: 5689 873f 1b31 3cbf 4632 33bf 3c0d 75bd
000003e0: 4dab 753d 5f92 f03e 208e 3f3d c9c9 cdbe
000003f0: 47e0 57bf 5620 9d3f e0e0 04bf 2714 dc3e

b1 f4 [100]
0.04673593 -0.057909198 0.03855064 -0.0593018 -0.001689538 0.007452236 -0.06917629 0.003500549
0.07929824 0.07130357 0.014907565 -0.030524027 -0.05403652 -0.00114772 -0.052231736 -0.0207784
0.08688193 0.04294396 -0.06734956 0.007540679 0.04755112 0.05062366 -0.041085538 0.0015696286
-0.063207984 0.031463277 0.072602786 0.04349175 -0.051399104 0.035395224 0.059369702 -0.019718306
0.005125667 0.10738787 0.038696397 0.0053098775 0.025259895 -0.044444554 0.008835832 0.0032537326
-0.0308295 -0.050793972 -0.019767374 -0.1691513 -0.110209584 0.016600147 0.06491163 -0.09113791
-0.009242175 -0.028154436 0.0064476337 0.05294392 -0.02556399 -0.01280533 -0.0043694354 -0.007034501
-0.011992074 0.024454044 -0.029372508 -0.026296802 0.07368883 0.030166127 -0.057481848 0.020061994
0.0018207812 0.015456257 -0.03180587 0.10057902 0.022356283 -0.02549526 -0.0064674555 0.044047084
-0.02088199 0.062793456 -0.0020131571 0.118479185 0.058762997 0.0061092232 0.016835354 0.0718995
-0.08470075 0.0034111033 -0.006312273 -0.022923728 -0.028305799 -0.0028332856 0.0069860546 0.020708932
0.039949518 0.07069906 -0.05652376 0.00061229675 -0.098759554 -0.047142286 0.008524748 -0.021420522
0.011280775 0.027585616 -0.03891631 -0.05168637
00000000: 2d6e 3f3d 3232 6dbd 47e7 1d3d 72e6 72bd
00000010: 7d73 ddba e331 f43b 4cac 8dbd 7769 653b
00000020: 1e67 a23d 9b07 923d dc3e 743c 860d fabc
00000030: 6655 5dbd 186f 96ba f2f0 55bd 7737 aabc
00000040: 27ef b13d 01e6 2f3d 91ee 89bd cd17 f73b
00000050: f7c4 423d c15a 4f3d 4f49 28bd ffbb cd3a
00000060: 3073 81bd a3df 003d c5b0 943d 6824 323d
00000070: de87 52bd 95fa 103d a52d 733d 4988 a1bc
00000080: 36f5 a73b 2cee db3d 1d80 1e3d 7bfe ad3b
00000090: d7ed ce3c 7e0b 36bd 2ac4 103c 933c 553b
000000a0: 268e fcbc 570d 50bd 30ef a1bc 0036 2dbe
000000b0: 90b5 e1bd 08fd 873c 63f0 843d 83a6 babd
000000c0: 7e6c 17bc 22a4 e6bc ac46 d33b b9db 583d
000000d0: 936b d1bc 72cd 51bc 7b2d 8fbb ac81 e6bb
000000e0: 677a 44bc d953 c83c 9d9e f0bc 646c d7bc
000000f0: 2bea 963d f41e f73c 1672 6bbd 0d59 a43c
00000100: 47a7 ee3a 3e3c 7d3c df46 02bd 60fc cd3d
00000110: 8624 b73c 6fdb d0bc f3ec d3bb b76a 343d
00000120: b510 abbc db99 803d 2cef 03bb 37a5 f23d
00000130: 78b1 703d e12f c83b 4cea 893c 0c40 933d
00000140: 9677 adbd d18c 5f3b 2fd7 cebb 8bca bbbc
00000150: 90e1 e7bc a5ae 39bb 46eb e43b c7a5 a93c
00000160: 1ba2 233d abca 903d 7585 67bd 8a82 203a
00000170: 7342 cabd 4518 41bd 62ab 0b3c 177a afbc
00000180: 00d3 383c 3bfb e13c b566 1fbd 16b5 53bd

b2 f4 [10]
0.16793565 0.40164268 -0.048548497 -0.1951989 -4.945773e-07 -0.065035746 -0.11974879 -0.00051492703
-0.11663303 -0.023900263
00000000: 53f7 2b3e 1ca4 cd3e cada 46bd 38e2 47be
00000010: 18c3 04b5 7631 85bd db3e f5bd 2bfc 06ba
00000020: 4cdd eebd 7cca c3bc
